resources/models/checkpoint_actor.pth (torch_old, 27462 bytes, 14 tensors)

fc1.weight f4 [64, 24]
0.17470968 -0.3364222 -0.023169408 -0.035832077 -0.46441108 0.2753682 0.09631319 0.07703496
0.14303598 -0.54223883 0.06609936 -0.1624053 0.47406906 -0.15077326 -0.055034816 -0.10839076
-0.18226506 -0.5759381 -0.029567096 0.17404884 1.8550204 -0.48484582 0.009888246 0.03076627
0.18960983 0.11917076 -0.0156068 0.48474416 -0.36590952 -1.0971438 0.079551846 0.45230022
0.05413454 0.36778527 0.054084446 -0.042006314 -0.23980904 -1.1594776 -0.10106665 0.01711196
-0.0068557705 0.29224896 -0.03381981 -0.75010353 -0.15582702 -0.18082796 0.13232015 -0.75954276
0.084522784 -0.73039716 -0.038073916 -0.4072492 0.3902042 0.96189344 0.044403344 -0.5988581
-0.112056464 -0.9796775 -0.090236954 -0.29313257 0.3605837 0.8392442 0.0517766 -0.22266115
9.74086e-05 -0.9510372 0.0015408447 -0.113037914 0.6507539 -0.025427671 0.083941445 -0.0100463675
-0.2221791 -0.2789899 -0.0401848 -0.08596062 -0.69381833 -0.4486607 0.07429376 -0.042930182
-0.27718315 -0.103155516 -0.12691267 0.31738448 -0.2628853 -0.66399014 -0.005614747 0.19532585
-0.1824176 0.030385861 -0.11998708 0.6229071 0.16428842 -0.9132807 0.056904588 0.6979397
0.08062462 0.3815421 -0.046975534 0.20326917 0.32761437 0.09866384 0.09844706 0.017369824
-0.016226713 0.3251022 -0.015228176 0.056809142 -0.7973867 -0.32003456 -0.035280377 0.13266152
0.115455665 0.2686149 0.06363249 0.12477969 -1.5558555 -0.8962025 -0.0227949 0.10014039
0.5624682 -0.8410862 0.036291003 0.0025961106 -0.11031806 -0.84891915 -0.06718168 0.17693794
0.44617164 -0.91670597 0.014226765 -0.1889595 -0.28961217 -0.55589813 -0.07695313 -0.16189237
0.13343412 -1.1739603 -0.08086745 -0.45192415 -0.3730929 -0.030689597 -0.10176966 -0.3315375
0.05001746 0.09440493 0.058594417 -0.15329114 0.3910291 -1.4278716 -0.0054919515 -0.1638672
-0.040457416 0.100047745 -0.030150311 -0.032873634 0.4599006 -0.9838569 0.020874193 0.036700748
-0.33447194 -0.37806273 0.03885502 0.21230295 -0.22677596 0.64883727 0.05629593 0.009266128
-0.23115046 0.14002097 -0.14054504 -0.40675128 -0.21657564 -0.33499858 0.01633901 -0.28187805
-0.27252495 0.08347384 -0.041709192 -0.8349736 -0.16107354 -0.6689986 0.107993126 -0.76649845
-0.41367516 0.04329587 -0.041901138 -0.2930145 -0.14335388 -0.9360732 -0.029717866 -0.33061343
0.06023392 -0.23029971 -0.087147124 -0.30096805 -0.16369452 -0.28789213 -0.08262662 -0.260944
0.030057855 -0.27782702 -0.27379122 0.077238075 0.17318457 0.2159527 -0.35621008 -0.09171613
-0.2941366 -0.5674225 -0.30720052 -0.07095443 0.20540243 0.56072235 -0.43765774 0.05438343
-0.016471667 0.5770275 0.014848177 0.16171351 0.18777822 -1.062223 0.16931567 -0.013882289
0.13404748 0.7851024 0.09966252 0.15159042 0.3761064 -1.2301337 -0.007361823 0.25907698
0.25803572 0.7888996 0.015577259 -0.13372356 0.26188233 -0.89246625 -0.068283126 -0.23825715
-0.2693681 0.37347737 0.05763416 0.47335947 0.51181173 -0.87670135 -0.1077689 0.5879104
-0.19778097 0.49725273 -0.025626497 0.2300608 0.4284418 -0.5924986 -0.022527492 0.08151424
00000000: 18e7 323e 883f acbe c5cd bdbc a8c4 12bd
00000010: 4ac7 edbe 10fd 8c3e da3f c53d 81c4 9d3d
00000020: 0678 123e 2ad0 0abf 1a5f 873d 934d 26be
00000030: 2eb9 f23e 4e64 1abe 306c 61bd fafb ddbd
00000040: b1a3 3abe ae70 13bf b236 f2bc dc39 323e
00000050: 4f71 ed3f b63d f8be 4f02 223c 8b09 fc3c
00000060: 1429 423e cd0f f43d aab3 7fbc 6330 f83e
00000070: 7e58 bbbe 356f 8cbf 14ec a23d e593 e73e
00000080: 2ebc 5d3d 5a4e bc3e a787 5d3d d00e 2cbd
00000090: 8090 75be c369 94bf 08fc cebd 622e 8c3c
000000a0: 5fa6 e0bb a8a1 953e a486 0abd c906 40bf
000000b0: 1e91 1fbe f72a 39be ef7e 073e 6571 42bf
000000c0: 481a ad3d 4ffb 3abf 65f3 1bbd f882 d0be
000000d0: d8c8 c73e a63e 763f 48e0 353d c44e 19bf
000000e0: dc7d e5bd 25cc 7abf 27ce b8bd 7915 96be
000000f0: 6d9e b83e b5d8 563f b313 543d 4901 64be
00000100: d847 cc38 2d77 73bf 2bf6 c93a 6c80 e7bd
00000110: cf97 263f b14d d0bc 7ee9 ab3d 8599 24bc
00000120: eb82 63be c4d7 8ebe d198 24bd 1f0c b0bd
00000130: 149e 31bf dbb6 e5be 5427 983d 8fd7 2fbd
00000140: f3ea 8dbe 3343 d3bd 65f5 01be 3880 a23e
00000150: e798 86be 42fb 29bf e9fb b7bb 8003 483e
00000160: aecb 3abe c5eb f83c c9bb f5bd d776 1f3f
00000170: 393b 283e c4cc 69bf c914 693d 2dac 323f
00000180: 851e a53d 7c59 c33e 6b69 40bd cb25 503e
00000190: 12bd a73e 4410 ca3d 9d9e c93d 294b 8e3c
000001a0: e2ed 84bc cc73 a63e 997f 79bc b4b0 683d
000001b0: 8921 4cbf 92db a3be 2882 10bd 6cd8 073e
000001c0: 0574 ec3d e487 893e c051 823d 7e8c ff3d
000001d0: 4626 c7bf 876d 65bf 5fbc babc 6816 cd3d
000001e0: eafd 0f3f 6d51 57bf e0a5 143d 8223 2a3b
000001f0: 6fee e1bd c452 59bf 8c96 89bd 382f 353e
00000200: 9c70 e43e 3ead 6abf 6117 693c 997e 41be
00000210: 0c48 94be 574f 0ebf 9a99 9dbd 1dc7 25be
00000220: f4a2 083e 5544 96bf d59d a5bd 9a62 e7be
00000230: 0806 bfbe c068 fbbc 9d6c d0bd 48bf a9be
00000240: 1cdf 4c3d 5f57 c13d b300 703d 5af8 1cbe
00000250: f734 c83e 7fc4 b6bf d4f5 b3bb cecc 27be
00000260: adb6 25bd d5e5 cc3d c9fd f6bc 81a6 06bd
00000270: 1778 eb3e 0cde 7bbf 5b00 ab3c 8653 163d
00000280: e83f abbe 7091 c1be 7126 1f3d f265 593e
00000290: f537 68be 331a 263f 9096 663d f5d0 173c
000002a0: b5b2 6cbe a861 0f3e 0aeb 0fbe b441 d0be
000002b0: 01c6 5dbe ef84 abbe 63d9 853c 5252 90be
000002c0: 6488 8bbe 55f4 aa3d 42d7 2abd d4c0 55bf
000002d0: 76f0 24be 7e43 2bbf 802b dd3d 3e39 44bf
000002e0: 3bcd d3be 0357 313d 87a0 2bbd ff05 96be
000002f0: 5ccb 12be 7ea2 6fbf e272 f3bc 2a46 a9be
00000300: d8b7 763d b0d3 6bbe 317a b2bd 7c18 9abe
00000310: 899f 27be 9966 93be 2538 a9bd 749a 85be
00000320: e43b f63c 583f 8ebe 5d2e 8cbe ff2e 9e3d
00000330: 4c57 313e b422 5d3e 2b61 b6be abd5 bbbd
00000340: 1399 96be 9a42 11bf 6349 9dbe 8e50 91bd
00000350: 0455 523e 808b 0f3f ad14 e0be 29c1 5e3d
00000360: 97ef 86bc 13b8 133f c545 733c 3a98 253e
00000370: ef48 403e ecf6 87bf 1661 2d3e 8a72 63bc
00000380: be43 093e 79fc 483f dd1b cc3d 853a 1b3e
00000390: 0591 c03e 0575 9dbf 733b f1bb bda5 843e
000003a0: 421d 843e 53f5 493f c237 7f3c d4ee 08be
000003b0: 7115 863e ab78 64bf 06d8 8bbd aff9 73be
000003c0: 9eea 89be 6d38 bf3e cc11 6c3d 2c5c f23e
000003d0: 1806 033f 806f 60bf f1b5 dcbd 4c81 163f
000003e0: 1887 4abe e997 fe3e a9ee d1bc 0f95 6b3e
000003f0: b95c db3e fdad 17bf 938b b8bc f0f0 a63d

fc1.bias f4 [64]
-0.31478113 -0.08290455 0.011381526 0.481443 0.25369498 -0.3887162 0.36020702 0.49070063
-0.13674006 9.017705e-06 -0.2072338 -0.9430698 -0.28876433 -0.8815871 -0.354151 0.22707038
-0.10449563 0.13258559 0.20585984 0.19786374 0.034212384 -0.7063961 -0.27126732 0.15358457
-0.38757595 -0.14564766 -0.272548 -0.8615335 0.38981685 -0.71282953 -0.85771257 -0.08617223
0.095441744 -0.15112625 -0.35275596 -0.66828024 -0.61054856 0.03190606 -0.3541014 -0.05564711
0.045909096 0.06902255 0.00038925355 0.10182144 -0.01919567 0.08410675 -0.732681 -0.98488075
-0.8920926 0.03992828 -0.76929456 -0.34935087 -0.12076062 -0.1044041 -0.23178786 -0.67659926
0.30217856 0.21374497 0.23914072 -0.28495237 0.1298847 0.29571304 0.06560338 -0.024509722
00000000: fe2a a1be dcc9 a9bd 9479 3a3c b27f f63e
00000010: 4fe4 813e cf05 c7be 0e6d b83e 1d3d fb3e
00000020: 9605 0cbe c04a 1737 1935 54be 066d 71bf
00000030: ebd8 93be b1af 61bf 4853 b5be 2385 683e
00000040: ce01 d6bd 84c4 073e eccc 523e cb9c 4a3e
00000050: 4922 0c3d 60d6 34bf 8de3 8abe 4645 1d3e
00000060: 5b70 c6be a924 15be 698b 8bbe 768d 5cbf
00000070: 1396 c73e ff7b 36bf 0d93 5bbf 117b b0bd
00000080: f676 c33d d7c0 1abe 6e9c b4be 6a14 2bbf
00000090: e94c 1cbf eeaf 023d c74c b5be 39ee 63bd
000000a0: 2d0b 3c3d b25b 8d3d ba14 cc39 c287 d03d
000000b0: 3d40 9dbc 2940 ac3d fb90 3bbf 2521 7cbf
000000c0: 2e60 64bf d68b 233d 7df0 44bf 1ede b2be
000000d0: 5851 f7bd d1d1 d5bd cc59 6dbe 9c35 2dbf
000000e0: 26b7 9a3e f6df 5a3e 4ee1 743e 47e5 91be
000000f0: 7f00 053e b367 973e 115b 863d 9dc8 c8bc

bn1.weight f4 [64]
0.6859153 1.0371135 0.77883106 0.37684736 0.6821859 0.53531575 0.88022345 0.5282445
0.17916498 0.8315263 0.5108651 0.7155269 0.36153865 1.0472656 0.2023145 0.7768569
0.4214899 0.85037756 0.16842985 0.49138403 0.49439216 0.6287029 0.85584635 0.73696643
0.45594296 0.79635006 0.53810704 1.0669205 0.7195063 0.7100424 0.2081295 0.2945061
0.5169357 0.3204719 0.32864815 0.7571934 1.0269334 0.4434134 0.95630366 0.4754522
0.5694974 0.13474871 0.08624119 0.18455958 0.464375 0.26925215 0.25537935 0.80935687
0.5869899 0.34526092 0.49047405 0.34196132 0.55711913 1.122403 0.39789215 0.8774169
0.5247835 0.60542315 0.5410955 0.85207623 0.17172042 0.37502268 0.31178504 0.7325243
00000000: 2598 2f3f 23c0 843f 7961 473f 23f2 c03e
00000010: bca3 2e3f 740a 093f 5356 613f 083b 073f
00000020: 0677 373e e8de 543f 0ec8 023f c52c 373f
00000030: 981b b93e cd0c 863f 882b 4f3e 18e0 463f
00000040: 86cd d73e 58b2 593f e078 2c3e b096 fb3e
00000050: f820 fd3e acf2 203f bf18 5b3f d5a9 3c3f
00000060: 5b71 e93e 99dd 4b3f 62c1 093f da90 883f
00000070: 9131 383f 57c5 353f e61f 553e 81c9 963e
00000080: e655 043f e514 a43e 9244 a83e 6dd7 413f
00000090: 8e72 833f 1507 e33e 51d0 743f 796e f33e
000000a0: 95ca 113f 91fb 093e 399f b03d 30fd 3c3e
000000b0: 8fc2 ed3e 6bdb 893e 15c1 823e 0332 4f3f
000000c0: f844 163f 0ac6 b03e 6a1f fb3e 8e15 af3e
000000d0: 5c9f 0e3f e7aa 8f3f 85b8 cb3e 659e 603f
000000e0: 3658 063f 03fd 1a3f 3c85 0a3f ab21 5a3f
000000f0: 7ad7 2f3e f902 c03e 4aa2 9f3e b686 3b3f

bn1.bias f4 [64]
0.2514879 0.35799798 0.32004815 0.36897635 0.35863954 0.08379058 0.55712795 0.04385657
-0.4211422 0.2868645 0.367204 0.29660344 -0.05602997 0.38895026 -0.18899645 0.027546238
0.35048324 0.53079087 0.14039727 0.25666377 0.024637412 0.39947614 0.1503239 0.16660868
0.15949193 0.33063588 -0.11342955 0.24999762 0.62684965 -0.009061155 0.11053887 0.27747905
0.4314347 -0.039510325 -0.07616389 0.39406133 0.23061897 0.22293779 0.29638684 0.18726464
0.17298189 0.31400406 0.27395433 0.039761 0.4437558 0.07705701 0.43137252 0.27979046
0.14277628 -0.013733214 0.1246454 -0.030655423 0.17041545 0.38073075 0.04731919 0.40972498
0.3618942 0.43997028 0.12330436 0.17238528 0.007358218 0.10068653 0.016981225 0.3789719
00000000: 06c3 803e 834b b73e 5add a33e 78ea bc3e
00000010: 9a9f b73e 659a ab3d f09f 0e3f f2a2 333d
00000020: f39f d7be e7df 923e 2a02 bc3e 68dc 973e
00000030: af7f 65bd 7d24 c73e 4988 41be a6a8 e13c
00000040: 8a72 b33e e9e1 073f 4dc4 0f3e 6f69 833e
00000050: 66d4 c93c 2388 cc3e 82ee 193e 779b 2a3e
00000060: da51 233e 1b49 a93e c04d e8bd 60ff 7f3e
00000070: 3879 203f 3d75 14bc 3462 e23d bc11 8e3e
00000080: 02e5 dc3e 94d5 21bd d0fb 9bbd 68c2 c93e
00000090: 6127 6c3e ce49 643e 04c0 973e 4dc2 3f3e
000000a0: 2a22 313e 24c5 a03e be43 8c3e 6edc 223d
000000b0: f633 e33e 11d0 9d3d dcdc dc3e b240 8f3e
000000c0: f233 123e 4601 61bc 1646 ff3d 1521 fbbc
000000d0: 6381 2e3e 24ef c23e c4d1 413d 79c7 d13e
000000e0: 324a b93e c943 e13e ff86 fc3d c485 303e
000000f0: 351d f13b bd34 ce3d 361c 8b3c 9b08 c23e

bn1.running_mean f4 [64]
5.2310653 1.1373038 10.571086 1.5292957 3.5860183 0.15988956 0.9145301 2.5823362
4.464677 0.9268659 1.2911013 2.3985932 0.20853631 4.52224 20.941853 1.8325061
1.4639015 0.41249403 1.725803 3.5045938 2.0238273 1.952478 0.24732588 1.2971734
9.720522 4.412526 2.9288542 5.798682 9.208956 1.5946511 2.9511859e-05 7.1106386
5.912484 2.309287 5.731883 0.6632129 3.680497 3.0642447 10.47534 6.178953
0.8171843 0.46339357 15.589364 10.927256 1.1190901 1.6871032 1.7235368 11.370499
17.163004 3.6165211 8.425438 10.834506 8.802619 0.21041343 1.2156795 10.715541
0.9267229 0.5077272 0.27732852 2.1022377 11.137695 4.1705346 6.22418 0.3675905
00000000: e364 a740 2c93 913f 2b23 2941 f6bf c33f
00000010: 5381 6540 17ba 233e a51e 6a3f ff44 2540
00000020: a2de 8e40 1547 6d3f cf42 a53f 8d82 1940
00000030: 8b8a 553e 31b6 9040 ea88 a741 8f8f ea3f
00000040: 2061 bb3f 6b32 d33e 1de7 dc3f 444b 6040
00000050: 6386 0140 cdea f93f ff42 7d3e c709 a63f
00000060: 4287 1b41 6a33 8d40 5972 3b40 ce8e b940
00000070: e257 1341 871d cc3f 3c90 f737 5a8a e340
00000080: 1233 bd40 5ccb 1340 966b b740 52c8 293f
00000090: 438d 6b40 961c 4440 fe9a 2741 fcb9 c540
000000a0: fe32 513f ec41 ed3e 096e 7941 0ad6 2e41
000000b0: 583e 8f3f fff2 d73f db9c dc3f 90ed 3541
000000c0: d54d 8941 1575 6740 98ce 0641 235a 2d41
000000d0: 87d7 0c41 9e76 573e 639b 9b3f db72 2b41
000000e0: b63d 6d3f 69fa 013f 01fe 8d3e 108b 0640
000000f0: 0034 3241 0575 8540 7c2c c740 d234 bc3e

bn1.running_var f4 [64]
43.759357 12.322712 71.00053 12.739006 31.093607 0.85567176 3.9811954 35.312527
95.703316 7.547166 16.514814 16.48714 1.5334934 50.529804 276.98288 6.0840297
13.270404 2.9641454 17.715164 32.42131 15.150979 5.0291867 2.1596847 5.7373905
73.619644 33.51005 30.020256 16.041685 93.51309 11.539742 2.3569482e-05 43.72525
52.633076 25.425434 36.216652 4.405642 31.618835 29.916574 65.85026 57.047955
4.6230035 3.5739005 162.29968 88.648445 5.590931 17.90251 17.378681 38.536377
110.616554 21.358192 37.611973 78.55599 85.86864 1.6506488 11.586801 32.62069
4.832951 4.19134 1.3513958 20.599934 82.21069 43.91273 26.350178 3.593369
00000000: 9509 2f42 d429 4541 4500 8e42 f8d2 4b41
00000010: b5bf f841 4e0d 5b3f e8cb 7e40 0740 0d42
00000020: 1968 bf42 6282 f140 571e 8441 aae5 8341
00000030: 8349 c43f 851e 4a42 cf7d 8a43 5fb0 c240
00000040: 9353 5441 8fb4 3d40 a8b8 8d41 6caf 0142
00000050: 696a 7241 19ef a040 4638 0a40 b498 b740
00000060: 423d 9342 4b0a 0642 7c29 f041 5f55 8041
00000070: b406 bb42 c9a2 3841 14b7 c537 a8e6 2e42
00000080: 4588 5242 4a67 cb41 dadd 1042 05fb 8c40
00000090: 60f3 fc41 2555 ef41 55b3 8342 1b31 6442
000000a0: a5ef 9340 c9ba 6440 b84c 2243 014c b142
000000b0: e8e8 b240 5738 8f41 8a07 8b41 4025 1a42
000000c0: ad3b dd42 94dd aa41 a972 1642 ab1c 9d42
000000d0: bebc ab42 7648 d33f 8963 3941 967b 0242
000000e0: 89a7 9a40 751f 8640 8afa ac3f aacc a441
000000f0: e06b a442 a3a6 2f42 2acd d241 c2f9 6540

fc2.weight f4 [64, 64]
0.08976079 -0.37345475 -0.07342872 -0.24609688 -0.2256961 -0.18196186 -0.7896401 -0.27573532
0.2538647 0.0009174335 -0.1693494 -0.14283906 0.16545473 -0.2528047 0.10824135 0.037292894
-0.13717306 -0.42899537 0.02680148 -0.03159234 0.08087822 0.02889969 -0.20599331 -0.027535485
-0.049102146 0.11958165 -0.039750647 -0.18477382 -0.15209594 -0.19604799 0.05897666 -0.0990376
-0.23842196 0.052642327 0.07398004 -0.21270283 -0.029873155 0.030788274 0.030239884 -0.20432769
0.0021459998 -0.025724519 -0.09258881 0.15942967 -0.115117095 -0.0076644868 0.0074432823 -0.2523067
0.24780475 0.19299874 0.10659348 -0.042661812 -0.15720537 -0.46855015 -0.011257427 -0.19302411
0.08469343 -0.55503416 -0.07801699 0.029714473 0.16951543 0.15726593 -0.18164152 -0.032689966
-0.41585582 -0.19508125 0.0020166119 -0.059243 0.06417641 0.5418933 0.18894452 -0.025730392
0.5537717 -0.24350053 0.1306173 0.69819045 -0.06695527 0.34270087 0.48043624 0.09014033
0.2632654 0.07764104 0.2874962 -0.05102678 0.10318688 -0.34935734 0.23441131 0.23487343
0.4770501 -0.19013079 0.5305025 0.26941428 0.122585066 0.17983694 0.081438065 -0.23297764
-0.019920403 0.119045235 -0.13150829 0.07587611 0.07328727 0.014577594 0.22765596 -0.51922286
-0.112378515 -0.3975703 -0.36972395 -0.08679652 -0.34149003 0.5389418 -0.34108365 0.3568995
0.24837697 -0.26384765 0.74753875 0.28822818 0.26571742 0.19777447 0.039446294 -0.47400936
0.21402124 -0.2971466 0.14836474 -0.04449703 -0.08800154 -0.41614133 -0.43403953 0.12839904
0.38336754 -0.13035607 0.39391056 -0.29961997 -0.6562243 -0.07181824 -0.58648 0.08234971
0.16751778 -0.10373964 -0.44035995 0.057899717 -0.06645876 -0.21804845 0.2539811 -0.5280406
-0.4377593 -0.378531 0.26592007 0.051568538 0.18328172 -0.89108384 -0.39934576 0.104271635
0.040898014 -0.6676128 0.05398938 -0.41229525 -0.11960308 -0.12233658 -0.18428987 0.075694814
-0.3077196 -0.080860615 0.23312469 -0.40358543 0.13274254 -0.21933569 -0.3101951 0.07608008
-0.03585037 -0.17012922 0.0068599144 -0.025982132 0.02823609 0.08657391 -0.18741782 -0.21744813
0.03740744 -0.17474005 -0.10216852 -0.28386137 0.19388436 -0.25416812 -0.49000716 -0.1485739
-0.34819603 -0.38564244 -0.12282846 -0.16518731 0.36266163 0.17290169 0.2894103 -0.26639518
-0.13985339 0.3129209 -0.12087167 -0.48825872 -0.6110601 -0.80041873 -0.13775164 -0.43041816
0.23677702 0.0034925605 0.19309123 -0.019364314 -0.6635284 0.024970362 -0.016127735 -0.25576574
-0.38655746 -0.83141464 -0.19981685 -0.07618184 -0.38749444 -1.2363163 -0.51398957 0.0029366082
-0.028252134 -0.50098974 0.10571536 0.21744531 -0.020112833 -0.3206706 -0.07710867 -0.29310915
-0.18145324 0.27214178 -0.16865352 -0.38641068 0.25665778 0.135382 -0.22310711 -0.1969508
0.030825786 0.19805588 -0.016474256 -0.22136845 -0.48047647 -0.9494252 -0.33519214 -0.01941142
-0.48440012 0.18005264 -0.17213963 -0.16213189 -0.19573802 -0.15351337 0.13442448 -0.3063742
0.23317473 0.04260258 0.19890071 0.22650528 0.25372294 0.19808652 -0.22464767 -0.73289275
00000000: 81d4 b73d 7635 bfbe cc61 96bd d200 7cbe
00000010: e11c 67be 3654 3abe db25 4abf 2e2d 8dbe
00000020: 8efa 813e ec7f 703a ee69 2dbe 6744 12be
00000030: f76c 293e 9e6f 81be a4ad dd3d 6fc0 183d
00000040: 1877 0cbe 48a5 dbbe c78e db3c f866 01bd
00000050: 7ba3 a53d 0bbf ec3c e9ef 52be 1992 e1bc
00000060: 551f 49bd 39e7 f43d 93d1 22bd 5935 3dbe
00000070: 0abf 1bbe cec0 48be 8391 713d 3ad4 cabd
00000080: e324 74be 7b9f 573d d982 973d c5ce 59be
00000090: 8cb8 f4bc b137 fc3c a2b9 f73c 473b 51be
000000a0: e7a3 0c3b 3abc d2bc 349f bdbd 8841 233e
000000b0: 83c2 ebbd 6026 fbbb c7e6 f33b 582e 81be
000000c0: 87c0 7d3e 76a1 453e af4d da3d 27be 2ebd
000000d0: 72fa 20be cee5 efbe 1271 38bc 1da8 45be
000000e0: c073 ad3d b816 0ebf 5fc7 9fbd c46b f33c
000000f0: 7495 2d3e 520a 213e 3c00 3abe eae5 05bd
00000100: 0eeb d4be 61c3 47be 2229 043b caa8 72bd
00000110: ec6e 833d 85b9 0a3f ac7a 413e 8bc8 d2bc
00000120: fbc3 0d3f 3458 79be 8bc0 053e 9cbc 323f
00000130: d81f 89bd 7d76 af3e bdfb f53e 7e9b b83d
00000140: b9ca 863e 4402 9f3d b432 933e 7501 51bd
00000150: a553 d33d f7de b2be 8509 703e a982 703e
00000160: e93f f43e a5b1 42be 03cf 073f abf0 893e
00000170: e10d fb3d 2d27 383e 00c9 a63d b191 6ebe
00000180: 1d30 a3bc fdcd f33d 1caa 06be ef64 9b3d
00000190: a317 963d dcd6 6e3c a51e 693e caeb 04bf
000001a0: b526 e6bd 568e cbbe 754c bdbe 60c2 b1bd
000001b0: c8d7 aebe 17f8 093f 84a2 aebe 88bb b63e
000001c0: 8856 7e3e 0a17 87be b35e 3f3f a592 933e
000001d0: 1d0c 883e 6485 4a3e 7092 213d 5bb1 f2be
000001e0: 6228 5b3e 9923 98be edec 173e 8542 36bd
000001f0: 273a b4bd 7a10 d5be 6e3a debe 0a7b 033e
00000200: c048 c43e 107c 05be a5ae c93e ca67 99be
00000210: 51fe 27bf 7115 93bd 8e23 16bf f7a6 a83d
00000220: c889 2b3e 7375 d4bd dc76 e1be 4128 6d3d
00000230: 881b 88bd 1848 5fbe d009 823e ab2d 07bf
00000240: fd21 e0be d1ce c1be ad26 883e 8839 533d
00000250: 34ae 3b3e 121e 64bf 0c77 ccbe 5e8c d53d
00000260: ad84 273d ace8 2abf f823 5d3d 5d18 d3be
00000270: 76f2 f4bd 9a8b fabd 7cb6 3cbe e205 9b3d
00000280: 6c8d 9dbe 409a a5bd 3db8 6e3e c0a2 cebe
00000290: a9ed 073e 8999 60be e4d1 9ebe dfcf 9b3d
000002a0: d6d7 12bd 5b36 2ebe 22c9 e03b 7bd8 d4bc
000002b0: 5f4f e73c aa4d b13d 75ea 3fbe b9aa 5ebe
000002c0: 8b38 193d 0eef 32be bb3d d1bd 4756 91be
000002d0: 9f89 463e 5322 82be 38e2 fabe c223 18be
000002e0: c046 b2be ed72 c5be 7d8d fbbd dd26 29be
000002f0: c9ae b93e 240d 313e 962d 943e f364 88be
00000300: ba35 0fbe 2b37 a03e 918b f7bd 0cfd f9be
00000310: 6f6e 1cbf 3ee8 4cbf c40e 0dbe c55f dcbe
00000320: ad75 723e 71e3 643b b5b9 453e e9a1 9ebc
00000330: ffdc 29bf a58e cc3c 501e 84bc baf3 82be
00000340: dcea c5be 97d7 54bf ca9c 4cbe 3905 9cbd
00000350: ac65 c6be 9d3f 9ebf d294 03bf 1c74 403b
00000360: 0571 e7bc dd40 00bf 4b81 d83d fca9 5e3e
00000370: abc3 a4bc f02e a4be 26eb 9dbd 6712 96be
00000380: e1ce 39be 2b56 8b3e 82b3 2cbe 9fd7 c5be
00000390: a668 833e 94a1 0a3e 3176 64be 78ad 49be
000003a0: 5c86 fc3c 29cf 4a3e 05f5 86bc 69ae 62be
000003b0: 0301 f6be 880d 73bf 4e9e abbe b304 9fbc
000003c0: 4b03 f8be b85f 383e 5f45 30be e705 26be
000003d0: 8c6f 48be 9c32 1dbe 92a6 093e 14dd 9cbe
000003e0: 5bc5 6e3e 0b80 2e3d a1ac 4b3e 00f1 673e
000003f0: f9e7 813e 31d7 4a3e 0a0a 66be dc9e 3bbf

fc2.bias f4 [64]
-0.29243416 -0.377549 -0.12308023 -0.22831215 0.004759378 -0.32222316 -0.22729611 -0.201581
-0.211468 -0.32249126 -0.06732725 -0.16242673 -0.20978646 -0.121354744 -0.35626137 0.025002282
-0.27866966 -0.11689913 -0.35985765 -0.3597282 -0.3731368 -0.2884031 -0.002558283 0.45532262
-0.26583922 -0.22375895 -0.34861654 -0.5111811 -0.30842915 -0.21496603 -0.11246415 -0.27280927
-0.2919511 -0.2798204 -0.21473616 -0.043714564 -0.35495147 -0.3059674 -0.4067357 -0.41515112
-0.2652036 -0.2959351 -0.35409224 -0.24511799 -0.3001256 -0.24580427 -0.29056105 -0.29715133
-0.48451906 -0.015624891 -0.05999557 -0.1506301 -0.4421812 0.44652846 -0.23738752 0.047015328
-0.29118305 0.049458995 -0.3908613 -0.13719511 -0.14551996 -0.34958664 -0.25254896 -0.35980648
00000000: eeb9 95be 1a4e c1be 7d11 fcbd a9ca 69be
00000010: 8ef4 9b3b 6ffa a4be 50c0 68be 406b 4ebe
00000020: 118b 58be 931d a5be dfe2 89bd 3153 26be
00000030: 43d2 56be d688 f8bd e467 b6be 96d1 cc3c
00000040: caad 8ebe d068 efbd 433f b8be 4b2e b8be
00000050: c90b bfbe 92a9 93be dea8 27bb 0c20 e93e
00000060: 141c 88be 1121 65be de7d b2be c4dc 02bf
00000070: 6dea 9dbe 0e20 5cbe 9b53 e6bd a8ad 8bbe
00000080: 9d7a 95be 9f44 8fbe cce3 5bbe 0b0e 33bd
00000090: 33bc b5be c2a7 9cbe a93f d0be b08e d4be
000000a0: c4c8 87be ce84 97be 944b b5be 3600 7bbe
000000b0: 10aa 99be 1db4 7bbe 6bc4 94be 3824 98be
000000c0: e212 f8be 8bff 7fbc eabd 75bd c73e 1abe
000000d0: 9365 e2be 619f e43e b715 73be 2593 403d
000000e0: f215 95be 8495 4a3d f91e c8be e07c 0cbe
000000f0: 2f03 15be 05fd b2be 194e 81be 8e38 b8be

bn2.weight f4 [64]
1.2583857 1.6219689 2.050965 1.6979591 1.1408261 0.99353206 1.3781811 1.6938007
1.1349984 1.9354569 1.4325224 1.2341138 1.0782262 1.4420178 1.8295001 2.072782
1.1023688 1.4252326 1.0513157 2.5210285 2.2352393 2.562098 2.2776635 1.9345194
2.2359703 1.4501967 2.2388182 1.2626417 1.4530898 1.9795094 0.9336493 1.6807368
1.2693049 1.68242 1.4059039 1.762569 1.3828546 2.050681 1.1272342 1.9957141
2.230961 2.7293375 0.679755 0.7490857 0.8807402 1.535634 1.9139178 1.0433314
2.0056832 1.7197655 1.4072223 1.7895863 0.8455797 1.8670382 1.2113707 2.2295308
1.1523254 1.4962642 0.99307466 1.8875837 1.9840192 1.1972623 1.235984 0.9841288
00000000: c812 a13f ad9c cf3f 0343 0340 b956 d93f
00000010: 9706 923f 1e58 7e3f 3d68 b03f 76ce d83f
00000020: a147 913f 0dbd f73f e55c b73f 71f7 9d3f
00000030: 5103 8a3f 0a94 b83f 0f2d ea3f 76a8 0440
00000040: 6c1a 8d3f 066e b63f 8391 863f 8858 2140
00000050: 290e 0f40 6af9 2340 3dc5 1140 559e f73f
00000060: 231a 0f40 0ca0 b93f cc48 0f40 3e9e a13f
00000070: d9fe b93f 9060 fd3f a403 6f3f 6222 d73f
00000080: 9578 a23f 8a59 d73f a9f4 b33f dc9b e13f
00000090: 6101 b13f 5c3e 0340 3649 903f 8f73 ff3f
000000a0: 11c8 0e40 77ad 2e40 6c04 2e3f 15c4 3f3f
000000b0: 3178 613f a88f c43f 42fb f43f e28b 853f
000000c0: 1d5d 0040 4721 dc3f dc1f b43f 2a11 e53f
000000d0: e977 583f 1cfb ee3f 320e 9b3f a2b0 0e40
000000e0: 667f 933f 9685 bf3f 243a 7e3f 589c f13f
000000f0: 57f4 fd3f e43f 993f b934 9e3f ddef 7b3f

bn2.bias f4 [64]
0.08661739 0.027783958 0.10551547 -0.10939112 0.083723426 -0.11684945 0.06994817 -0.0015240788
-0.0001408099 0.05677013 -0.23869921 0.00018533309 -0.026675802 -0.23239027 0.06396387 0.15132403
-0.0014721699 0.07141007 -0.08595476 0.24900424 -0.039713845 -0.13194339 0.049374886 0.07903708
0.052759305 0.009199719 0.050113395 -0.05151794 0.09666989 -0.027835667 0.06733264 -0.11601312
0.065896064 0.15379559 -0.00046158966 -0.23590006 0.0018884321 0.12815331 -0.13177864 0.05098045
0.095915906 0.03470772 -2.2621728e-06 -0.02900622 -0.08577977 0.0779263 0.08837182 0.1961783
-0.03261959 -0.066387996 0.17541818 0.13484912 0.00031581434 -0.03150029 0.05496028 0.21926488
3.1767595e-06 0.054622065 -1.7409138e-06 0.090991884 -0.04490279 -0.027548522 -0.08680488 0.010904864
00000000: 7564 b13d 2f9b e33c 7f18 d83d 7408 e0bd
00000010: 3077 ab3d c44e efbd fc40 8f3d 99c3 c7ba
00000020: 5fa6 13b9 cc87 683d 916d 74be f955 4239
00000030: 3687 dabc b7f7 6dbe 7dff 823d b0f4 1a3e
00000040: d3f5 c0ba 713f 923d 0d09 b0bd f8fa 7e3e
00000050: fcaa 22bd 2b1c 07be 523d 4a3d 31de a13d
00000060: 241a 583d 6bba 163c b443 4d3d 7a04 53bd
00000070: ddfa c53d a007 e4bc b2e5 893d 4998 edbd
00000080: 84f4 863d 977c 1d3e 8401 f2b9 c98f 71be
00000090: 4485 f73a 9f3a 033e fbf0 06be e0d0 503d
000000a0: 8f6f c43d af29 0e3d d5cf 17b6 749e edbc
000000b0: 4ead afbd d397 9f3d 49fc b43d f7e2 483e
000000c0: 1f9c 05bd 6ef6 87bd d3a0 333e e315 0a3e
000000d0: e293 a539 7306 01bd 081e 613d f986 603e
000000e0: 5030 5536 63bb 5f3d 58a9 e9b5 f459 ba3d
000000f0: fdeb 37bd 70ad e1bc c2c6 b1bd 51aa 323c

bn2.running_mean f4 [64]
6e-45 0.31454733 0.11387208 0.1056978 0.5125402 6e-45 6e-45 6e-45
6e-45 6e-45 0.13484168 6e-45 6e-45 0.14001109 2.521492e-12 0.5453706
4.2212707e-16 0.013084647 3.6133617e-08 0.03169048 6e-45 0.196054 1.6061763 1.6205795
6e-45 6e-45 6e-45 6e-45 6e-45 6e-45 6e-45 0.8632164
6e-45 0.17914476 6e-45 0.45439148 2.543925e-24 0.23091277 6e-45 6e-45
6e-45 1.2319968 6e-45 6e-45 6e-45 6e-45 6e-45 6e-45
0.48329127 1.0367799 0.44574174 0.43476474 6e-45 1.5262731 2.9098358e-38 1.3635417
6e-45 0.43573684 6e-45 0.22220936 0.073160335 0.010367778 6e-45 0.06920572
00000000: 0400 0000 590c a13e c435 e93d 1778 d83d
00000010: d635 033f 0400 0000 0400 0000 0400 0000
00000020: 0400 0000 0400 0000 f013 0a3e 0400 0000
00000030: 0400 0000 115f 0f3e 296f 312c 689d 0b3f
00000040: f656 f325 fd60 563c 5531 1b33 e0cd 013d
00000050: 0400 0000 61c2 483e 2f97 cd3f 266f cf3f
00000060: 0400 0000 0400 0000 0400 0000 0400 0000
00000070: 0400 0000 0400 0000 0400 0000 c0fb 5c3f
00000080: 0400 0000 b971 373e 0400 0000 00a6 e83e
00000090: a0d3 4418 6674 6c3e 0400 0000 0400 0000
000000a0: 0400 0000 12b2 9d3f 0400 0000 0400 0000
000000b0: 0400 0000 0400 0000 0400 0000 0400 0000
000000c0: f471 f73e 34b5 843f 4338 e43e 7c99 de3e
000000d0: 0400 0000 eb5c c33f 316d 1e01 8988 ae3f
000000e0: 0400 0000 e618 df3e 0400 0000 da8a 633e
000000f0: 16d5 953d 9ddd 293c 0400 0000 bbbb 8d3d

bn2.running_var f4 [64]
6e-45 0.43040067 0.09955669 0.15675125 0.7253685 6e-45 6e-45 6e-45
6e-45 6e-45 0.13795955 6e-45 6e-45 0.21027392 7.532082e-14 0.6811486
7.408188e-17 0.0068022395 1.5214729e-08 0.038235914 6e-45 0.19568351 2.920785 1.7917408
6e-45 6e-45 6e-45 6e-45 6e-45 6e-45 6e-45 1.1992217
6e-45 0.15694028 6e-45 0.6248467 5.723979e-25 0.18101297 6e-45 6e-45
6e-45 4.820673 6e-45 6e-45 6e-45 6e-45 6e-45 6e-45
0.6453893 1.8547893 0.71371734 0.71032965 6e-45 1.3932045 1.91144e-39 1.4467163
6e-45 0.8794341 6e-45 0.17556351 0.06206843 0.004204153 6e-45 0.04609689
00000000: 0400 0000 7a5d dc3e 61e4 cb3d 6683 203e
00000010: c0b1 393f 0400 0000 0400 0000 0400 0000
00000020: 0400 0000 0400 0000 4545 0d3e 0400 0000
00000030: 0400 0000 0c52 573e 7f9b a929 c15f 2e3f
00000040: 39d2 aa24 52e5 de3b 8bb1 8232 439d 1c3d
00000050: 0400 0000 4261 483e 24ee 3a40 c357 e53f
00000060: 0400 0000 0400 0000 0400 0000 0400 0000
00000070: 0400 0000 0400 0000 0400 0000 1980 993f
00000080: 0400 0000 f4b4 203e 0400 0000 f4f5 1f3f
00000090: 0926 3117 775b 393e 0400 0000 0400 0000
000000a0: 0400 0000 f442 9a40 0400 0000 0400 0000
000000b0: 0400 0000 0400 0000 0400 0000 0400 0000
000000c0: 3c38 253f bc69 ed3f 2eb6 363f 2ad8 353f
000000d0: 0400 0000 8654 b23f 51d0 1400 002e b93f
000000e0: 0400 0000 9822 613f 0400 0000 ecc6 333e
000000f0: 773b 7e3d fec2 893b 0400 0000 18d0 3c3d

fc3.weight f4 [2, 64]
0.057292227 0.43712148 0.8588564 -0.8055076 -0.20837249 -0.21072674 -0.0016430949 -0.0014283711
-0.00021458729 0.5880935 -1.085083 1.5069137e-05 0.008371447 -0.7237904 0.11143711 0.8903988
-0.0004987277 0.12359027 0.035388853 -0.6045391 -0.6442072 0.04314344 1.0468243 0.42030302
0.16214003 0.0033752017 0.5719455 0.038091186 0.12088856 -0.012055572 0.016004207 -0.6092575
0.2823489 0.24910754 -0.0002905214 -0.71076494 0.0021044712 0.64208156 -0.6012226 0.46906653
0.6196157 -0.48437023 -7.959563e-06 -0.025922166 -0.33653548 0.5841127 0.5467584 0.47189197
-1.1682954 -0.6688616 1.2809502 0.5651433 0.00081783184 0.04729475 0.542049 0.31183997
7.868475e-06 0.6655443 8.823792e-05 0.3804598 0.8638726 0.24279237 0.1382707 -0.07195234
-0.8426863 -0.7807962 0.24225219 0.652649 -0.8648775 0.15750621 -0.5077629 0.0011387876
0.00020826909 -0.5998461 -0.16692892 -0.0020251877 0.1151729 -0.08374658 -0.16812178 0.25035816
0.017586017 -0.2532371 0.2722891 0.8369674 0.30095464 1.754101 0.08208213 -1.0327837
-0.47036052 -0.054059714 -0.33428183 0.47444576 -0.51567453 0.8270274 -0.26799205 -0.50113213
-0.4537721 -1.2949085 0.0031674448 0.02314403 -0.009837363 -1.2443223 -0.22915405 -0.021927461
-0.38560098 1.2145649 -8.650635e-06 0.03184199 0.38912043 -0.19441332 -0.12473876 0.32964018
-0.08968874 0.8314109 -0.7480737 0.5852855 -4.2465315e-05 -1.817522 0.3725731 -1.3505713
-1.4929732e-05 -0.4824722 0.0003107709 1.3327519 -0.25883278 0.28983366 -0.5177302 -0.29629275
00000000: 41ab 6a3d 63ce df3e 03de 5b3f bf35 4ebf
00000010: 995f 55be c0c8 57be 1e5d d7ba 2e38 bbba
00000020: d602 61b9 4c8d 163f 00e4 8abf 73d1 7c37
00000030: 6528 093c 544a 39bf 2439 e43d 2df1 633f
00000040: 0dbd 02ba e51c fd3d e7f3 103d 13c3 1abf
00000050: c3ea 24bf 2db7 303d 57fe 853f f531 d73e
00000060: 0908 263e 7d32 5d3b 056b 123f 8105 1c3d
00000070: 6c94 f73d bc84 45bc 411b 833c 4df8 1bbf
00000080: 0990 903e 0c16 7f3e 1f51 98b9 b1f4 35bf
00000090: 2beb 093b 755f 243f b9e9 19bf 7d29 f03e
000000a0: 229f 1e3f 60ff f7be 108a 05b7 b95a d4bc
000000b0: 614e acbe 6988 153f 5cf8 0b3f d39b f13e
000000c0: b48a 95bf 843a 2bbf 2df6 a33f 3bad 103f
000000d0: c463 563a 24b8 413d b9c3 0a3f 7da9 9f3e
000000e0: d802 0437 1c61 2a3f 5f0c b938 a0cb c23e
000000f0: c126 5d3f 909e 783e d696 0d3e c05b 93bd
00000100: 4aba 57bf 42e2 47bf f510 783e 0114 273f
00000110: 9d68 5dbf 4f49 213e c0fc 01bf 5f43 953a
00000120: cf62 5a39 848f 19bf 6aef 2abe 03b9 04bb
00000130: c5df eb3d 5483 abbd 1e28 2cbe f22e 803e
00000140: 8d10 903c 4ba8 81be 7a69 8b3e 7f43 563f
00000150: ba16 9a3e 6286 e03f ad1a a83d 4232 84bf
00000160: 18d3 f0be b86d 5dbd fd26 abbe 8eea f23e
00000170: 3f03 04bf 11b8 533f 4136 89be 324a 00bf
00000180: d154 e8be 90bf a5bf e894 4f3b 8c98 bd3c
00000190: e42c 21bc f445 9fbf 5ca7 6abe 38a1 b3bc
000001a0: 7e6d c5be dd76 9b3f 3222 11b7 bf6c 023d
000001b0: cb3a c73e 4914 47be 0977 ffbd 99c6 a83e
000001c0: bbae b7bd 58d7 543f c281 3fbf 45d5 153f
000001d0: c91c 32b8 90a4 e8bf e7c1 be3e 85df acbf
000001e0: b67a 7ab7 9906 f7be f7ee a239 9d97 aa3f
000001f0: bb85 84be 1465 943e f789 04bf afb3 97be

fc3.bias f4 [2]
-0.008403282 -0.18091075
00000000: ebad 09bc ab40 39be
