resources/models/checkpoint_critic.pth (torch_old, 33171 bytes, 10 tensors)

fc1.weight f4 [64, 52]
2.0233912 -0.7050589 0.015916739 0.6175281 0.46473226 -1.1812304 -0.00879946 0.6947665
0.9707825 -0.9684214 0.18316986 0.7503583 0.39651716 -0.8019495 0.18663032 0.75329524
0.5294134 -1.1923226 -0.15517414 0.21615516 0.4796148 -1.5899019 -0.13391688 0.43595654
0.48213574 0.16920686 0.09181202 -0.2898564 -0.46569666 -1.1678635 -0.096272 -0.40376836
0.6282479 0.3647536 0.37356576 0.09932241 -0.37863088 -0.92787075 0.41396704 0.14782178
0.9704475 0.3761343 -0.13888922 0.51255006 -0.5602318 -1.6010842 -0.35797355 0.47863007
1.0375502 -0.99889827 -0.15471485 2.3164694 -0.8529937 -1.093404 0.07250551 0.13061686
-0.015088399 -0.26892895 0.018912265 0.10141448 -0.5042358 -1.03228 0.018905126 -0.16753802
0.15788332 -0.8326282 0.086002015 -0.22575366 -0.46562153 -1.2059271 0.3326347 -0.03467316
0.43652216 -0.5548677 0.1698321 0.07060707 -0.033739768 0.7209806 -0.020638697 0.42092565
-0.05368027 -0.16645284 0.01800921 0.44843987 1.069635 0.6857469 0.015180029 -0.3842902
-0.29958028 -0.66517144 -0.008307923 -0.53278625 1.6880445 0.76493603 0.20687819 -0.4408783
-0.54717535 -0.692234 0.14014953 -0.5799969 2.397997 -1.3981812 6.086646 0.028375098
0.4209126 -0.5266199 -0.054334965 -0.015686056 -0.61866957 -0.38521844 0.02907782 0.011063515
1.0943651 -0.14182012 0.014350311 -0.06586109 -0.7378509 -0.5497744 0.008034387 -0.074142806
1.863035 0.10626372 0.12510246 -0.10599049 -1.368536 0.016832119 -0.04700508 0.054012895
0.068586245 -2.1831377 0.059680894 0.063298784 0.5499497 -0.5045986 -0.08058786 0.06870986
0.49638653 -1.9272702 0.0038175588 -0.12314635 0.5882089 -0.53022015 -0.034779754 -0.15040204
1.10497 -1.7088428 -0.049109034 0.15372644 1.493504 -0.1606196 0.05517823 0.1650757
2.3559098 -0.69927865 0.85952985 0.17839912 0.60005724 2.3529997 -0.0127657475 0.28750685
0.91531545 -1.8106565 0.041816637 0.13889891 -0.29545295 1.2693582 -0.009335344 0.3140618
-0.4948844 -1.1646833 0.064084925 0.33002046 -1.466008 0.64922315 0.029010968 -0.029723367
-0.6284611 -0.034936532 0.10810425 -0.14240654 1.1277218 0.7541849 0.027684204 0.16956949
-0.9679187 -1.7425184 -0.082833156 0.0804198 0.09557035 -0.43879294 0.04506882 0.116272375
0.33381295 -1.1074858 -0.026867306 0.09476542 -0.59704137 -1.0635831 0.03761779 0.12652414
0.62444425 -0.0756225 -0.0014458038 0.04485782 3.3246565 0.24734753 -1.575489 0.79533875
-0.023299234 0.9644677 0.028597454 0.1204625 0.005170566 0.60215795 -0.009196818 0.019345954
0.007836658 1.213554 0.09441387 0.015886886 0.0294703 -0.08091327 -0.044274773 0.17399985
-0.024943061 0.9245636 -0.017572062 -0.025331058 -0.108189404 -5.347022 -0.0058074463 -0.12424554
-0.16403322 1.2032095 0.10251019 -0.22005719 0.2101629 0.8451538 -0.050246175 -0.069697686
0.24636668 1.0497832 0.04757332 0.04819436 -0.016537074 -0.14582264 -0.044364117 -0.10487624
-0.18203032 0.96414953 -0.013833313 0.1974039 0.15317337 -5.3556085 0.015662698 0.3010522
00000000: 3e7f 0140 bd7e 34bf d263 823c 5216 1e3f
00000010: 63f1 ed3e 8f32 97bf 9c2b 10bc 38dc 313f
00000020: 3485 783f 77ea 77bf e190 3b3e 7b17 403f
00000030: 4c04 cb3e 904c 4dbf 051c 3f3e f5d7 403f
00000040: a387 073f 079e 98bf f8e5 1ebe c757 5d3e
00000050: 1290 f53e e881 cbbf 8221 09be b235 df3e
00000060: 7fda f63e 9044 2d3e f107 bc3d 0f68 94be
00000070: cb6f eebe 8d7c 95bf 412a c5bd baba cebe
00000080: dbd4 203f fcc0 ba3e 0344 bf3e 8c69 cb3d
00000090: e8db c1be f088 6dbf 7df3 d33e 985e 173e
000000a0: 3f6f 783f ad94 c03e fa38 0ebe 7b36 033f
000000b0: 5a6b 0fbf 54f0 ccbf 4f48 b7be 000f f53e
000000c0: 72ce 843f ccb7 7fbf 926d 1ebe 0941 1440
000000d0: cc5d 5abf aaf4 8bbf c57d 943d 6dc0 053e
000000e0: 5535 77bc 0eb1 89be e5ed 9a3c 65b2 cf3d
000000f0: 9915 01bf c021 84bf ecde 9a3c 168f 2bbe
00000100: 2aac 213e 1f27 55bf d321 b03d f82b 67be
00000110: f265 eebe d25b 9abf 184f aa3e 7205 0ebd
00000120: d57f df3e cf0b 0ebf 77e8 2d3e 719a 903d
00000130: b632 0abd 2f92 383f 7c12 a9bc 9183 d73e
00000140: d8df 5bbd 9d72 2abe 0d88 933c e999 e53e
00000150: cde9 883f 1c8d 2f3f a8b5 783c afc1 c4be
00000160: 9662 99be ad48 2abf f41d 08bc ae64 08bf
00000170: d811 d83f d9d2 433f e0d7 533e cdba e1be
00000180: af13 0cbf 3f36 31bf 5c83 0f3e ad7a 14bf
00000190: c878 1940 9af7 b2bf cec5 c240 e572 e83c
000001a0: db81 d73e 90d0 06bf 578e 5ebd 0b80 80bc
000001b0: 2161 1ebf 5a3b c5be 9c34 ee3c bf43 353c
000001c0: 2814 8c3f 4b39 11be 911d 6b3c 2ee2 86bd
000001d0: cce3 3cbf 04be 0cbf a9a2 033c 2fd8 97bd
000001e0: ee77 ee3f cba0 d93d dc1a 003e 8b11 d9bd
000001f0: 302c afbf 83e3 893c 6688 40bd a03c 5d3d
00000200: f276 8c3d 87b8 0bc0 f473 743d cba2 813d
00000210: 81c9 0c3f 602d 01bf 3f0b a5bd c1b7 8c3d
00000220: 6026 fe3e cab0 f6bf 0230 7a3b 2734 fcbd
00000230: dc94 163f 82bc 07bf 3775 0ebd fe02 1abe
00000240: a86f 8d3f 5cbb dabf 8e26 49bd 776a 1d3e
00000250: 242b bf3f 7779 24be 9102 623d 9b09 293e
00000260: 3ac7 1640 ed03 33bf 260a 5c3f 42ae 363e
00000270: 5a9d 193f 8c97 1640 6d27 51bc 1934 933e
00000280: 1d52 6a3f 98c3 e7bf ec47 2b3d 843b 0e3e
00000290: 9c45 97be 547a a23f 45f3 18bc b5cc a03e
000002a0: 7d61 fdbe 5814 95bf f53e 833d 71f8 a83e
000002b0: 26a6 bbbf 7d33 263f 69a8 ed3c 6b7e f3bc
000002c0: d4e2 20bf 9c19 0fbd c365 dd3d 05d3 11be
000002d0: 3059 903f 4312 413f fcc9 e23c a0a3 2d3e
000002e0: 85c9 77bf d80a dfbf 6ea4 a9bd 23b3 a43d
000002f0: 63ba c33d 78a9 e0be 159a 383d 3620 ee3d
00000300: 88e9 aa3e 18c2 8dbf d318 dcbc 5f14 c23d
00000310: b4d7 18bf 7e23 88bf 1d15 1a3d 8b8f 013e
00000320: 94db 1f3f f8df 9abd 2081 bdba d5bc 373d
00000330: 2cc7 5440 ac48 7d3e a0a9 c9bf 529b 4b3f
00000340: 09de bebc 5be7 763f 3545 ea3c 0bb5 f63d
00000350: da6d a93b 0627 1a3f 40ae 16bc 687b 9e3c
00000360: 5365 003c bd55 9b3f 0f5c c13d 3725 823c
00000370: b36b f13c dbb5 a5bd 7759 35bd 042d 323e
00000380: 6455 ccbc 33b0 6c3f 49f3 8fbc 1483 cfbc
00000390: 6892 ddbd ce1a abc0 644c bebb 7274 febd
000003a0: 53f8 27be c502 9a3f ddf0 d13d ac56 61be
000003b0: f134 573e 005c 583f efce 4dbd a9bd 8ebd
000003c0: 8c47 7c3e 4c5f 863f 3edc 423d 7367 453d
000003d0: c278 87bc 8852 15be 26b7 35bd 5bc9 d6bd
000003e0: 2866 3abe 81d2 763f 1fa5 62bc 3f24 4a3e
000003f0: 7bd9 1c3e 2561 abc0 0f4f 803c 8423 9a3e

fc1.bias f4 [64]
0.31991336 -0.05102286 -0.4932597 0.6361269 1.2214909 -3.529349 -2.0229309 -3.9123187
-1.3658613 0.3184365 -0.2800954 -1.8095744 -2.4661374 -1.7899244 -1.1663545 -1.184848
-1.4088054 -0.08350902 0.9548262 -1.4486806 -0.16164438 0.051807895 1.3476481 0.22559303
-1.6361935 -0.9409785 -0.36378762 0.56084293 0.7760808 0.11180594 -1.5009594 -0.0019527908
0.112200916 -2.4743283 -0.80403036 0.24194254 0.12904152 1.8715924 -0.18363112 -0.20969658
-0.9923686 -2.977134 -2.1408808 0.65838474 -0.98324317 -2.1047277 -0.24011256 0.75675845
0.7694485 1.2073365 -0.6884806 -0.91474026 -0.8174921 -1.7458662 0.39624485 0.112735234
1.027146 -0.19730961 -1.5858535 -0.7363386 -0.25031504 -1.8846434 0.30857125 -0.061618194
00000000: afcb a33e 59fd 50bd 898c fcbe 36d9 223f
00000010: d059 9c3f dbe0 61c0 b377 01c0 6e63 7ac0
00000020: 8bd4 aebf 1c0a a33e aa68 8fbe 22a0 e7bf
00000030: 32d5 1dc0 3e1c e5bf 1b4b 95bf 19a9 97bf
00000040: bc53 b4bf c706 abbd 7d6f 743f 5e6e b9bf
00000050: 1b86 25be 8434 543d bc7f ac3f dc01 673e
00000060: ca6e d1bf f8e3 70bf 5f42 babe 6793 0f3f
00000070: 3bad 463f 83fa e43d 701f c0bf c9f4 ffba
00000080: 98c9 e53d 655b 1ec0 efd4 4dbf c9bf 773e
00000090: 7623 043e 5790 ef3f cc09 3cbe b3ba 56be
000000a0: de0b 7ebf 5d89 3ec0 3104 09c0 e78b 283f
000000b0: d3b5 7bbf dcb3 06c0 11e0 75be ecba 413f
000000c0: 94fa 443f 018a 9a3f 4440 30bf 6b2c 6abf
000000d0: 2a47 51bf 8b78 dfbf 9be0 ca3e bbe1 e63d
000000e0: 8579 833f 880b 4abe 3ffd cabf b080 3cbf
000000f0: 4b29 80be ff3b f1bf 0dfd 9d3e 5c63 7cbd

bn1.weight f4 [64]
-0.06654634 0.14934388 0.24113832 0.4211077 0.96728516 0.29964206 0.11798124 0.20679547
0.12057277 -0.4765328 0.42135024 -0.17879656 0.31785828 0.5661459 0.7500191 0.27704293
0.19029295 0.54919606 0.23149128 0.18383333 0.2308605 0.18789174 0.17225908 0.1339757
0.3621985 0.23008507 0.14110002 0.16509734 0.30505255 0.093990706 0.24003191 0.16252045
0.637659 0.28322467 0.1702596 0.52323174 0.25489542 0.5131858 0.19532743 0.14502268
0.18032102 0.33387187 0.6426261 0.20584878 0.44933406 0.10567203 0.24149102 -0.5300257
0.5381033 0.25952643 0.31683815 0.29873452 0.21213903 0.13695537 0.19670293 0.4556541
0.18682596 0.20585151 0.08583393 0.4061583 0.35349783 0.1876089 0.08293232 0.21961409
00000000: 7349 88bd 9aed 183e f7ec 763e 6e9b d73e
00000010: 00a0 773f af6a 993e 26a0 f13d 31c2 533e
00000020: dbee f63d 1bfc f3be 38bb d73e 7216 37be
00000030: 52be a23e f0ee 103f 4001 403f 92d8 8d3e
00000040: 28dc 423e 1d98 0c3f 0d0c 6d3e ce3e 3c3e
00000050: b266 6c3e b166 403e af64 303e ed30 093e
00000060: 1572 b93e 6c9b 6b3e 867c 103e 470f 293e
00000070: d92f 9c3e 337e c03d edca 753e c36b 263e
00000080: 9f3d 233f d302 913e 8858 2e3e 84f2 053f
00000090: a781 823e 2560 033f ea03 483e d380 143e
000000a0: 13a6 383e 41f1 aa3e 2583 243f 06ca 523e
000000b0: 1d0f e63e 946a d83d 6c49 773e c4af 07bf
000000c0: 23c1 093f a6e0 843e 9c38 a23e bbf3 983e
000000d0: f93a 593e 073e 0c3e 7e6c 493e 7f4b e93e
000000e0: 4e4f 3f3e bdca 523e b3c9 af3d fbf3 cf3e
000000f0: abfd b43e 8c1c 403e 6cd8 a93d 84e2 603e

bn1.bias f4 [64]
-0.026521582 0.08880443 0.018520623 0.13540944 0.24515678 0.17588046 0.01756267 0.029043268
0.006322947 -0.27620128 0.10749323 -0.12244401 -0.0026523767 0.22055478 0.25810137 0.11568461
0.023077814 -0.038151756 0.076023266 0.06414439 0.065950185 0.08811761 0.22180758 0.059377797
0.25852278 0.033597477 0.068457685 0.05520759 0.097349316 0.033684246 0.10303153 0.034213267
0.13556466 0.09757912 -0.0041751475 0.11447948 0.08465956 0.22322857 0.019728448 0.009496689
0.0114845745 0.20619935 0.18006118 -0.011575861 0.13973103 0.032603756 0.025793424 -0.14134367
0.1514074 0.018074738 -0.011369707 0.07078232 0.05047489 0.039672468 0.043380193 0.15850493
0.036302593 0.064511515 0.037501335 0.093365364 0.2189106 0.07572044 0.015796065 0.17763852
00000000: ca43 d9bc 19df b53d 90b8 973c c6a8 0a3e
00000010: 610a 7b3e 021a 343e 97df 8f3c 26ec ed3c
00000020: b930 cf3b 416a 8dbe 6925 dc3d edc3 fabd
00000030: 7fd3 2dbb 1dd9 613e dd25 843e 0eec ec3d
00000040: af0d bd3c 0445 1cbd 16b2 9b3d 225e 833d
00000050: e410 873d 0177 b43d 8721 633e 2236 733d
00000060: 195d 843e 829d 093d 8b33 8c3d 5b21 623d
00000070: 145f c73d 7ef8 093d 3202 d33d 3623 0c3d
00000080: 76d1 0a3e 90d7 c73d adcf 88bb 3874 ea3d
00000090: fe61 ad3d 0896 643e 8e9d a13c 0098 1b3c
000000a0: cc29 3c3c ec25 533e f561 383e aea8 3dbc
000000b0: a715 0f3e 848b 053d bb4c d33c 65bc 10be
000000c0: 8b0a 1b3e 7911 943c 0248 3abc 52f6 903d
000000d0: c2be 4e3d 997f 223d 6eaf 313d 1e4f 223e
000000e0: 07b2 143d 9d1e 843d 009b 193d 5736 bf3d
000000f0: 1a2a 603e 5113 9b3d c066 813c dfe6 353e

bn1.running_mean f4 [64]
1.3976227 13.534054 5.5008326 1.2573047 1.1213568 10.493029 9.333767 23.884905
1.4011693 36.629436 2.1864462 3.1430368 9.26849 3.0608969 4.0275507 4.1443725
3.4552574 10.213535 3.9565928 3.3433046 4.9722586 6.087691 24.391733 5.640409
8.280987 19.430079 8.582946 5.4805374 3.233585 6.3617983 30.589386 1.157283
1.7714206 8.509511 0.6323031 0.9914677 3.272405 3.2297578 3.0107055 2.9264991
8.514338 4.755405 5.679534 6.739512 3.9767797 11.612716 2.9914937 3.860429
2.3627834 3.5881948 6.1001816 1.6451982 19.457495 3.3483973 0.9068787 3.5544362
0.5656578 4.314141 6.1763387 2.276677 34.78344 6.046208 0.25819802 13.242723
00000000: 4de5 b23f 7c8b 5841 d206 b040 5cef a03f
00000010: 9f88 8f3f 72e3 2741 1c57 1541 4914 bf41
00000020: 8459 b33f 8b84 1242 bcee 0b40 8427 4940
00000030: bc4b 1441 bce5 4340 b2e1 8040 b39e 8440
00000040: f022 5d40 a46a 2341 d138 7d40 b4f8 5540
00000050: be1c 9f40 5dce c240 4522 c341 3b7e b440
00000060: ec7e 0441 cd70 9b41 bf53 0941 9060 af40
00000070: 0ef3 4e40 da93 cb40 10b7 f441 d921 943f
00000080: e9bd e23f f526 0841 9ede 213f d4d0 7d3f
00000090: 156f 5140 5ab4 4e40 66af 4040 c34b 3b40
000000a0: ba3a 0841 472c 9840 bebe b540 15aa d740
000000b0: 8f83 7e40 afcd 3941 a274 3f40 4511 7740
000000c0: d837 1740 fca4 6540 b034 c340 db95 d23f
000000d0: f3a8 9b41 244c 5640 3429 683f e27b 6340
000000e0: f3ce 103f 710d 8a40 91a4 c540 13b5 1140
000000f0: 3e22 0b42 897a c140 8832 843e 32e2 5341

bn1.running_var f4 [64]
32.606155 200.01659 81.79673 16.264019 26.010887 153.06891 103.77146 401.805
24.003977 1880.1965 30.38975 39.86489 70.80457 20.215174 25.771605 67.57349
25.006622 77.58494 60.309616 46.631046 87.84107 109.13453 336.69568 158.08789
140.5985 298.14557 119.45147 90.47751 33.99958 91.92744 310.60187 22.189661
42.63506 92.91215 8.389985 17.291798 80.04064 35.56694 75.14565 45.0982
137.90346 51.280636 73.43988 152.60416 36.42327 312.55637 87.00782 96.16672
55.486263 62.879845 191.20245 42.725555 573.7518 42.231865 22.01432 57.193592
7.4929833 100.805855 79.64778 60.573235 1810.3611 52.511833 4.3545275 192.3648
00000000: b46c 0242 3f04 4843 ed97 a342 b61c 8241
00000010: 4c16 d041 a411 1943 fd8a cf42 0ae7 c843
00000020: 2508 c041 4a06 eb44 351e f341 a675 1f42
00000030: f19b 8d42 adb8 a141 3f2c ce41 a025 8742
00000040: 900d c841 7d2b 9b42 0c3d 7142 3186 3a42
00000050: a1ae af42 e144 da42 0c59 a843 8016 1e43
00000060: 3799 0c43 a212 9543 27e7 ee42 7cf4 b442
00000070: 92ff 0742 d9da b742 0a4d 9b43 6d84 b141
00000080: 4d8a 2a42 05d3 b942 613d 0641 9a55 8a41
00000090: cf14 a042 8c44 0e42 934a 9642 8f64 3442
000000a0: 49e7 0943 5f1f 4d42 38e1 9242 aa9a 1843
000000b0: 6eb1 1142 3747 9c43 0104 ae42 5c55 c042
000000c0: eff1 5d42 f684 7b42 d433 3f43 f8e6 2a42
000000d0: 1d70 0f44 6eed 2842 541d b041 3dc6 6442
000000e0: 85c6 ef40 999c c942 aa4b 9f42 fe4a 7242
000000f0: 8e4b e244 1e0c 5242 4a58 8b40 645d 4043

fc2.weight f4 [64, 64]
0.70355874 -0.6454782 -0.43716064 -0.21528497 -0.41958797 -0.63576365 -1.0480318 -0.2947478
0.22105092 -0.18238378 -0.2388577 0.8850324 -0.091751896 -0.44724607 -0.13387384 0.51152533
0.42930782 -0.21920995 -0.12116055 -0.08981513 0.4578142 -0.37231988 -0.9967481 0.13152827
-0.6616362 0.27890006 -0.75913095 -0.35010266 -1.0737759 0.2787303 0.6552265 -0.8127243
-0.54865754 -0.80050814 0.2259714 -0.3232738 0.28440258 -0.5104672 -0.31019214 -0.82692945
-0.84564173 -0.43498868 -0.3175923 -0.20667557 0.0890913 -0.6408597 0.8619294 0.437683
-0.34243888 0.27640778 -0.22357668 -0.85332596 -0.02822814 -0.0061306385 0.28798923 0.4430611
-0.48082376 0.048017133 0.04702643 -0.37939206 -0.3192935 0.7461157 -0.098347954 0.046390355
0.2714648 0.01656452 -0.020999638 0.6172172 -0.244947 -0.081092335 0.544536 -0.40400764
-0.17201431 -0.1126103 -0.66469836 0.37923685 -0.17220625 -0.2571751 -0.6225602 0.32910353
-0.42519125 -0.29080185 -0.013263947 0.46572092 -0.2452029 0.35654375 0.759317 -0.34199864
-0.22116335 -0.23302343 -0.15504028 0.18433683 0.13178653 0.051863324 -0.7127922 -0.8476637
-0.5287758 0.112389304 -0.26287234 0.14742838 -0.48650515 -0.05716443 0.21009694 -0.2875305
-0.1142439 -0.5654609 -0.30102515 -0.30848837 -0.4498093 -0.67798793 0.16219148 0.37903675
-1.2562815 -0.68222725 0.30106562 -0.89485615 -0.12003383 -0.2683254 -0.41902658 0.24972431
-0.41060364 -0.23382388 -0.5287888 0.45627984 -0.2958022 -0.37011313 -0.12174071 0.024950119
0.2738405 -0.2176283 0.30816105 0.45818532 -0.8180371 0.6619707 0.45105538 -0.11941831
0.14756066 0.77781063 0.24512991 -0.20552194 -0.36565068 -1.0817946 -0.49126863 -0.36623785
-0.2088186 0.12551855 -0.036305394 0.07769832 0.008111652 0.04546759 -0.21572389 0.31536034
-0.2244363 0.4689935 0.15062052 -0.25454628 0.5747648 -0.17113075 0.49265972 -0.30271012
-0.0703674 -0.645178 -0.21538532 0.4984583 -0.5408145 0.064365275 0.3091453 -0.0034405307
0.38606837 0.17944649 -0.984997 0.07208932 0.17702289 0.1651564 -0.12481971 0.47036517
-0.012335868 0.0004737649 0.08284919 0.1121312 -0.84037435 0.49987036 -0.12651587 0.4443881
-0.53878564 0.33057824 -0.04426663 -0.38352975 0.32469764 0.17064989 -0.12166045 -0.6468154
0.027938217 -0.41523352 -0.08813637 -0.17881706 0.18249924 -0.7750878 0.20044385 0.3505961
-0.4730926 -0.10552812 -0.58012825 0.4292386 -0.026093893 -0.27806202 -0.14326459 -0.12006825
0.16573891 -0.5899039 -0.5616333 0.98193306 0.2142003 0.38102016 0.13181669 0.41530383
-0.42810944 -0.48379996 -0.6370571 -0.5810638 -0.2747364 0.08981874 -0.1868182 0.025887145
0.09127453 0.7456153 -0.21694796 -0.5180957 -0.0561887 0.04571007 -0.2763545 -0.59489936
-0.24949679 -0.1999212 -0.36762276 -0.077455275 -0.5156092 0.06081857 -0.49481365 0.06394138
-0.11018447 -0.2559233 -0.3330178 -0.22475041 0.3818081 -0.054491673 0.33692014 -0.67817783
0.42206502 0.0797642 -0.77269566 -0.54807353 0.014905267 -0.14374088 0.009366704 0.06766563
00000000: 6d1c 343f 0f3e 25bf 85d3 dfbe aa73 5cbe
00000010: 3cd4 d6be 68c1 22bf e825 86bf 2fe9 96be
00000020: 2c5b 623e d0c2 3abe 1d97 74be 7c91 623f
00000030: 6be8 bbbd 70fd e4be 3916 09be 53f3 023f
00000040: 3cce db3e 9378 60be 0623 f8bd fff0 b7bd
00000050: 9f66 ea3e b6a0 bebe e22a 7fbf 59af 063e
00000060: fd60 29bf fdcb 8e3e 6856 42bf a840 b3be
00000070: 7d71 89bf bdb5 8e3e edbc 273f b30e 50bf
00000080: d274 0cbf 1aee 4cbf 0c65 673e 2584 a5be
00000090: 379d 913e faad 02bf 81d1 9ebe a6b1 53bf
000000a0: fa7b 58bf d6b6 debe 759b a2be c3a2 53be
000000b0: 8075 b63d 620f 24bf 68a7 5c3f fc17 e03e
000000c0: 2654 afbe 5285 8d3e 49f1 64be 9273 5abf
000000d0: b33e e7bc 86e3 c8bb 5373 933e e8d8 e23e
000000e0: 882e f6be 9dad 443d c99e 403d ad3f c2be
000000f0: 707a a3be 7001 3f3f a76a c9bd d003 3e3d
00000100: 6ffd 8a3e 51b2 873c 6f07 acbc f201 1e3f
00000110: 63d3 7abe bd13 a6bd b666 0b3f 17da cebe
00000120: 8524 30be 3ba0 e6bd ac29 2abf 552b c23e
00000130: d656 30be 74ac 83be 1b60 1fbf 4280 a83e
00000140: abb2 d9be fbe3 94be 0751 59bc f972 ee3e
00000150: 7816 7bbe e78c b63e 9962 423f 721a afbe
00000160: a578 62be b29d 6ebe e1c2 1ebe cbc2 3c3e
00000170: 0cf3 063e a36e 543d 8d79 36bf 7d00 59bf
00000180: da5d 07bf 5d2c e63d 3497 86be 77f7 163e
00000190: 3417 f9be 4025 6abd a723 573e 3337 93be
000001a0: b5f8 e9bd 0cc2 10bf f81f 9abe 30f2 9dbe
000001b0: 684d e6be 9e90 2dbf 8615 263e 1b11 c23e
000001c0: d5cd a0bf 72a6 2ebf 4625 9a3e 4b15 65bf
000001d0: 4cd4 f5bd f261 89be a78a d6be bbb7 7f3e
000001e0: a43a d2be 876f 6fbe b45e 07bf 839d e93e
000001f0: 6373 97be 787f bdbe 3253 f9bd 3164 cc3c
00000200: d234 8c3e f4d9 5ebe 49c7 9d3e 4497 ea3e
00000210: e16a 51bf e976 293f bbf0 e63e 9691 f4bd
00000220: 241a 173e 991e 473f 5603 7b3e 5874 52be
00000230: 9136 bbbe 3f78 8abf 9087 fbbe 8783 bbbe
00000240: 8bd4 55be ef87 003e f7b4 14bd 4c20 9f3d
00000250: bce6 043c 393c 3a3d b9e6 5cbe e976 a13e
00000260: a1d2 65be eb1f f03e 443c 1a3e e453 82be
00000270: c923 133f e63c 2fbe e53d fc3e d2fc 9abe
00000280: c91c 90bd 632a 25bf f88d 5cbe ed35 ff3e
00000290: d272 0abf f1d1 833d 4b48 9e3e 877a 61bb
000002a0: c1aa c53e d2c0 373e c328 7cbf 91a3 933d
000002b0: 7d45 353e c21e 293e 7aa1 ffbd b4d3 f03e
000002c0: 611c 4abc a663 f839 d6ac a93d 0ba5 e53d
000002d0: c622 57bf 02ef ff3e 608d 01be d686 e33e
000002e0: dbed 09bf 8d41 a93e ed50 35bd 035e c4be
000002f0: c53e a63e d8be 2e3e 1d29 f9bd b295 25bf
00000300: b0de e43c 7d99 d4be d780 b4bd d21b 37be
00000310: 15e1 3a3e 276c 46bf 2741 4d3e 5581 b33e
00000320: 3139 f2be 211f d8bd 4983 14bf 29c5 db3e
00000330: dcc2 d5bc 255e 8ebe f4b3 12be 58e6 f5bd
00000340: 76b7 293e f103 17bf 33c7 0fbf f75f 7b3f
00000350: 5357 5b3e 1315 c33e f4fa 063e b4a2 d43e
00000360: 2931 dbbe a1b4 f7be 2d16 23bf 99c0 14bf
00000370: 40aa 8cbe e3f2 b73d 454d 3fbe 4711 d43c
00000380: 24ee ba3d a5e0 3e3f 9b27 5ebe eba1 04bf
00000390: 1f26 66bd 7b3a 3b3d 567e 8dbe 534b 18bf
000003a0: 167c 7fbe 25b8 4cbe 0d39 bcbe dfa0 9ebd
000003b0: f7fe 03bf e51c 793d 3758 fdbe b3f3 823d
000003c0: 65a8 e1bd 6108 83be 4f81 aabe f924 66be
000003d0: 5a7c c33e a932 5fbd cc80 ac3e 109d 2dbf
000003e0: e818 d83e 6a5b a33d 62cf 45bf 8c4e 0cbf
000003f0: 3935 743c cf30 13be ce76 193c 4794 8a3d

fc2.bias f4 [64]
-0.74767697 -0.28781766 -0.46556687 -0.12675525 -0.7006483 -0.681069 -0.069929965 -0.44597915
-0.2414046 0.1158459 -0.083042935 -0.6621529 -0.6848815 -0.57229763 -0.60050595 -0.52054554
-0.57480913 -0.73876387 0.26325288 -0.4309706 -0.46666428 -0.23654874 -0.39809653 -0.4492969
-0.5796155 -0.14645341 -0.34775326 -0.7031892 -0.518434 -0.27299005 -0.15967077 -0.11539712
0.4057613 -0.7288321 -0.46587265 -0.2683694 -0.68747795 -0.5667355 -0.5304246 -0.6290221
0.036171086 -0.52531016 -0.4496269 -0.49195352 -0.42155474 -0.30207273 -0.73807544 -0.6654485
-0.49431086 -0.59214765 -0.228852 -0.35547784 -0.38770488 -0.3984685 -0.5714315 -0.15705945
-0.72046626 -0.2538952 -0.1994706 -0.69246477 -0.19483238 -0.2076166 -0.6436111 -0.61409664
00000000: c267 3fbf d65c 93be c85e eebe 21cc 01be
00000010: b05d 33bf 8a5a 2ebf 7137 8fbd 6157 e4be
00000020: c432 77be 9d40 ed3d 6a12 aabd da82 29bf
00000030: 6554 2fbf 1982 12bf c2ba 19bf 7942 05bf
00000040: b126 13bf a11f 3dbf 15c9 863e 2ea8 dcbe
00000050: 9fee eebe d539 72be 4fd3 cbbe 3e0a e6be
00000060: ae61 14bf e2f7 15be b70c b2be 3504 34bf
00000070: 17b8 04bf 5ac5 8bbe bc80 23be 5355 ecbd
00000080: f2bf cf3e be94 3abf dc86 eebe b767 89be
00000090: 8efe 2fbf 9415 11bf e8c9 07bf 9807 21bf
000000a0: 2228 143d ba7a 06bf 7f35 e6be 55e1 fbbe
000000b0: 06d6 d7be 47a9 9abe 83f2 3cbf d55a 2abf
000000c0: 5016 fdbe fd96 17bf 2e58 6abe 3101 b6be
000000d0: 4181 c6be 1004 ccbe 5649 12bf 31d4 20be
000000e0: 7a70 38bf 8dfe 81be 0542 4cbe 5f45 31bf
000000f0: 2482 47be 7299 54be b2c3 24bf 7035 1dbf

fc3.weight f4 [2, 64]
0.31300268 0.07688034 -0.1786826 0.090116926 -0.12190113 0.046748456 0.094263144 0.07462843
0.102718286 -0.11339443 0.0852269 0.028786976 0.022083733 -0.17196943 -0.15355705 -0.053680096
0.02305879 0.3467559 0.08114581 -0.10749368 0.20272493 0.1016727 -0.10110978 0.06059908
0.08596941 0.16734746 0.23621841 0.20428324 -0.077572584 0.13432659 -0.012959058 0.069052726
0.14277151 0.071979925 -0.20067868 0.1714614 -0.094053805 0.013300807 -0.21196465 0.06190173
0.17264003 -0.050560035 -0.1989731 0.00031009997 -0.10946149 0.09263798 0.1956497 0.15098783
-0.082995884 0.22934923 0.12465867 -0.06850672 -0.1534367 -0.15475401 -0.033678446 0.10474374
0.3018425 0.0735242 -0.24489729 0.32763267 0.086470455 -0.1326272 -0.28991693 -0.08212402
0.31958237 0.070093125 -0.052321717 0.09682935 -0.120827384 0.25921053 0.07968452 0.06643705
0.07077225 -0.10197745 0.0864311 0.04248372 0.04246306 -0.1395214 -0.12739201 -0.07625005
-0.028421724 0.11222751 0.082661845 -0.10429555 0.20668703 0.07745469 -0.08596771 0.023777632
0.19134143 0.15143539 0.1796811 0.10129392 0.029696722 0.14187287 0.09231712 0.04290712
0.08960097 0.28223968 -0.18286982 0.16323684 -0.098073326 0.007913395 -0.19159427 0.023339761
0.054323036 -0.06442628 -0.1638962 0.016470175 -0.12817843 0.0672511 0.14519669 0.13146971
-0.058890294 0.184985 0.104115576 -0.054803908 -0.12726349 -0.11309384 0.13260867 0.0917932
0.26953998 0.07070101 -0.1953935 0.25179976 0.07406866 -0.110850334 -0.2152269 -0.074728526
00000000: e341 a03e 7173 9d3d 92f8 36be 398f b83d
00000010: 4da7 f9bd 4f7b 3f3d 090d c13d cad6 983d
00000020: f75d d23d 573b e8bd 718b ae3d aad2 eb3c
00000030: f2e8 b43c c118 30be 0f3e 1dbe a9df 5bbd
00000040: cae5 bc3c fd89 b13e c62f a63d a625 dcbd
00000050: 2097 4f3e c739 d03d a512 cfbd be36 783d
00000060: bb10 b03d 225d 2b3e 3de3 713e a02f 513e
00000070: 60de 9ebd e98c 093e 3b52 54bc 846b 8d3d
00000080: b232 123e 366a 933d b67e 4dbe 9493 2f3e
00000090: 489f c0bd a1eb 593c 430d 59be ab8c 7d3d
000000a0: 8cc8 303e 0a18 4fbd 9bbf 4bbe ea94 a239
000000b0: 582d e0bd fbb8 bd3d 6558 483e 8e9c 1a3e
000000c0: bff9 a9bd 86da 6a3e 0b4d ff3d 404d 8cbd
000000d0: 831e 1dbe d677 1ebe 69f2 09bd e383 d63d
000000e0: 1a8b 9a3e db93 963d 5bc6 7abe 78bf a73e
000000f0: 6c17 b13d 6dcf 07be fe6f 94be a330 a8bd
00000100: 4da0 a33e fc8c 8f3d 4c4f 56bd 774e c63d
00000110: 5974 f7bd 3eb7 843e a331 a33d 2610 883d
00000120: 0bf1 903d 8ed9 d0bd ca02 b13d 6903 2e3d
00000130: bfed 2d3d b3de 0ebe 0d73 02be fc28 9cbd
00000140: add4 e8bc 89d7 e53d 9d4a a93d e898 d5bd
00000150: c4a5 533e 91a0 9e3d d70f b0bd 4fc9 c23c
00000160: 02ef 433e e111 1b3e 53fe 373e 3073 cf3d
00000170: 8a46 f33c 1f47 113e c210 bd3d 60bf 2f3d
00000180: b780 b73d b881 903e 3a42 3bbe 8f27 273e
00000190: abda c8bd 2fa7 013c 4a31 44be 0733 bf3c
000001a0: d581 5e3d edf1 83bd 68d4 27be 76ec 863c
000001b0: 3541 03be f2ba 893d 71ae 143e ff9f 063e
000001c0: f336 71bd b56c 3d3e 8c3a d53d 107a 60bd
000001d0: 5c51 02be be9d e7bd 91ca 073e 13fe bb3d
000001e0: 2501 8a3e b1cb 903d 3c15 48be e6eb 803e
000001f0: 4fb1 973d 8005 e3bd 7164 5cbe 450b 99bd

fc3.bias f4 [2]
0.22762093 0.20780343
00000000: 7615 693e 6cca 543e
